
__________________________________________________________________________________________________
Layer (type)                    Output Shape         Param #     Connected to
==================================================================================================
x1 (InputLayer)                 (None, 10, 2, 120, 2 0
__________________________________________________________________________________________________
x2 (InputLayer)                 (None, 120, 11)      0
__________________________________________________________________________________________________
conv3d_21 (Conv3D)              (None, 9, 2, 116, 16 336         x1[0][0]
__________________________________________________________________________________________________
conv3d_22 (Conv3D)              (None, 10, 1, 116, 1 336         x1[0][0]
__________________________________________________________________________________________________
conv1d_11 (Conv1D)              (None, 118, 16)      544         x2[0][0]
__________________________________________________________________________________________________
leaky_re_lu_33 (LeakyReLU)      (None, 9, 2, 116, 16 0           conv3d_21[0][0]
__________________________________________________________________________________________________
leaky_re_lu_34 (LeakyReLU)      (None, 10, 1, 116, 1 0           conv3d_22[0][0]
__________________________________________________________________________________________________
leaky_re_lu_31 (LeakyReLU)      (None, 118, 16)      0           conv1d_11[0][0]
__________________________________________________________________________________________________
max_pooling3d_21 (MaxPooling3D) (None, 9, 2, 38, 16) 0           leaky_re_lu_33[0][0]
__________________________________________________________________________________________________
max_pooling3d_22 (MaxPooling3D) (None, 10, 1, 38, 16 0           leaky_re_lu_34[0][0]
__________________________________________________________________________________________________
max_pooling1d_11 (MaxPooling1D) (None, 39, 16)       0           leaky_re_lu_31[0][0]
__________________________________________________________________________________________________
conv3d_23 (Conv3D)              (None, 9, 1, 34, 32) 5152        max_pooling3d_21[0][0]
__________________________________________________________________________________________________
conv3d_24 (Conv3D)              (None, 9, 1, 34, 32) 5152        max_pooling3d_22[0][0]
__________________________________________________________________________________________________
conv1d_12 (Conv1D)              (None, 37, 32)       1568        max_pooling1d_11[0][0]
__________________________________________________________________________________________________
leaky_re_lu_35 (LeakyReLU)      (None, 9, 1, 34, 32) 0           conv3d_23[0][0]
__________________________________________________________________________________________________
leaky_re_lu_36 (LeakyReLU)      (None, 9, 1, 34, 32) 0           conv3d_24[0][0]
__________________________________________________________________________________________________
leaky_re_lu_32 (LeakyReLU)      (None, 37, 32)       0           conv1d_12[0][0]
__________________________________________________________________________________________________
max_pooling3d_23 (MaxPooling3D) (None, 9, 1, 6, 32)  0           leaky_re_lu_35[0][0]
__________________________________________________________________________________________________
max_pooling3d_24 (MaxPooling3D) (None, 9, 1, 6, 32)  0           leaky_re_lu_36[0][0]
__________________________________________________________________________________________________
max_pooling1d_12 (MaxPooling1D) (None, 18, 32)       0           leaky_re_lu_32[0][0]
__________________________________________________________________________________________________
concatenate_11 (Concatenate)    (None, 9, 1, 6, 64)  0           max_pooling3d_23[0][0]
                                                                 max_pooling3d_24[0][0]
__________________________________________________________________________________________________
flatten_12 (Flatten)            (None, 576)          0           max_pooling1d_12[0][0]
__________________________________________________________________________________________________
flatten_11 (Flatten)            (None, 3456)         0           concatenate_11[0][0]
__________________________________________________________________________________________________
x3 (InputLayer)                 (None, 7)            0
__________________________________________________________________________________________________
concatenate_12 (Concatenate)    (None, 4039)         0           flatten_12[0][0]
                                                                 flatten_11[0][0]
                                                                 x3[0][0]
__________________________________________________________________________________________________
dense_11 (Dense)                (None, 30)           121200      concatenate_12[0][0]
__________________________________________________________________________________________________
dense_12 (Dense)                (None, 1)            31          dense_11[0][0]
==================================================================================================
Total params: 134,319
Trainable params: 134,319
Non-trainable params: 0
__________________________________________________________________________________________________
loading data from ticker 000910, yyyymmdd 20180424 is finished.
loading data from ticker 002150, yyyymmdd 20180502 is finished.
…
