
__________________________________________________________________________________________________
Layer (type)                    Output Shape         Param #     Connected to                     
==================================================================================================
x1 (InputLayer)                 (None, 10, 2, 120, 2 0                                            
__________________________________________________________________________________________________
x2 (InputLayer)                 (None, 120, 11)      0                                            
__________________________________________________________________________________________________
conv3d_13 (Conv3D)              (None, 9, 2, 116, 16 336         x1[0][0]
__________________________________________________________________________________________________
conv3d_14 (Conv3D)              (None, 10, 1, 116, 1 336         x1[0][0]
__________________________________________________________________________________________________
conv1d_7 (Conv1D)               (None, 118, 16)      544         x2[0][0]
__________________________________________________________________________________________________
leaky_re_lu_21 (LeakyReLU)      (None, 9, 2, 116, 16 0           conv3d_13[0][0]
__________________________________________________________________________________________________
leaky_re_lu_22 (LeakyReLU)      (None, 10, 1, 116, 1 0           conv3d_14[0][0]
__________________________________________________________________________________________________
leaky_re_lu_19 (LeakyReLU)      (None, 118, 16)      0           conv1d_7[0][0]
__________________________________________________________________________________________________
max_pooling3d_13 (MaxPooling3D) (None, 9, 2, 38, 16) 0           leaky_re_lu_21[0][0]
__________________________________________________________________________________________________
max_pooling3d_14 (MaxPooling3D) (None, 10, 1, 38, 16 0           leaky_re_lu_22[0][0]
__________________________________________________________________________________________________
max_pooling1d_7 (MaxPooling1D)  (None, 39, 16)       0           leaky_re_lu_19[0][0]
__________________________________________________________________________________________________
conv3d_15 (Conv3D)              (None, 9, 1, 34, 32) 5152        max_pooling3d_13[0][0]
__________________________________________________________________________________________________
conv3d_16 (Conv3D)              (None, 9, 1, 34, 32) 5152        max_pooling3d_14[0][0]
__________________________________________________________________________________________________
conv1d_8 (Conv1D)               (None, 37, 32)       1568        max_pooling1d_7[0][0]
__________________________________________________________________________________________________
leaky_re_lu_23 (LeakyReLU)      (None, 9, 1, 34, 32) 0           conv3d_15[0][0]
__________________________________________________________________________________________________
leaky_re_lu_24 (LeakyReLU)      (None, 9, 1, 34, 32) 0           conv3d_16[0][0]
__________________________________________________________________________________________________
leaky_re_lu_20 (LeakyReLU)      (None, 37, 32)       0           conv1d_8[0][0]
__________________________________________________________________________________________________
max_pooling3d_15 (MaxPooling3D) (None, 9, 1, 6, 32)  0           leaky_re_lu_23[0][0]
__________________________________________________________________________________________________
max_pooling3d_16 (MaxPooling3D) (None, 9, 1, 6, 32)  0           leaky_re_lu_24[0][0]
__________________________________________________________________________________________________
max_pooling1d_8 (MaxPooling1D)  (None, 18, 32)       0           leaky_re_lu_20[0][0]
__________________________________________________________________________________________________
concatenate_7 (Concatenate)     (None, 9, 1, 6, 64)  0           max_pooling3d_15[0][0]
                                                                 max_pooling3d_16[0][0]
__________________________________________________________________________________________________
flatten_8 (Flatten)             (None, 576)          0           max_pooling1d_8[0][0]
__________________________________________________________________________________________________
flatten_7 (Flatten)             (None, 3456)         0           concatenate_7[0][0]
__________________________________________________________________________________________________
x3 (InputLayer)                 (None, 7)            0
__________________________________________________________________________________________________
concatenate_8 (Concatenate)     (None, 4039)         0           flatten_8[0][0]
                                                                 flatten_7[0][0]
                                                                 x3[0][0]
__________________________________________________________________________________________________
dense_7 (Dense)                 (None, 20)           80800       concatenate_8[0][0]
__________________________________________________________________________________________________
dense_8 (Dense)                 (None, 1)            21          dense_7[0][0]
==================================================================================================
Total params: 93,909
Trainable params: 93,909
Non-trainable params: 0
__________________________________________________________________________________________________
loading data from ticker 000910, yyyymmdd 20180424 is finished.
loading data from ticker 002150, yyyymmdd 20180502 is finished.
…
