
__________________________________________________________________________________________________
Layer (type)                    Output Shape         Param #     Connected to                     
==================================================================================================
x1 (InputLayer)                 (None, 10, 2, 120, 2 0                                            
__________________________________________________________________________________________________
x2 (InputLayer)                 (None, 120, 11)      0                                            
__________________________________________________________________________________________________
conv3d_9 (Conv3D)               (None, 9, 2, 116, 16 336         x1[0][0]
__________________________________________________________________________________________________
conv3d_10 (Conv3D)              (None, 10, 1, 116, 1 336         x1[0][0]
__________________________________________________________________________________________________
conv1d_5 (Conv1D)               (None, 118, 16)      544         x2[0][0]
__________________________________________________________________________________________________
leaky_re_lu_15 (LeakyReLU)      (None, 9, 2, 116, 16 0           conv3d_9[0][0]
__________________________________________________________________________________________________
leaky_re_lu_16 (LeakyReLU)      (None, 10, 1, 116, 1 0           conv3d_10[0][0]
__________________________________________________________________________________________________
leaky_re_lu_13 (LeakyReLU)      (None, 118, 16)      0           conv1d_5[0][0]
__________________________________________________________________________________________________
max_pooling3d_9 (MaxPooling3D)  (None, 9, 2, 38, 16) 0           leaky_re_lu_15[0][0]
__________________________________________________________________________________________________
max_pooling3d_10 (MaxPooling3D) (None, 10, 1, 38, 16 0           leaky_re_lu_16[0][0]
__________________________________________________________________________________________________
max_pooling1d_5 (MaxPooling1D)  (None, 39, 16)       0           leaky_re_lu_13[0][0]
__________________________________________________________________________________________________
conv3d_11 (Conv3D)              (None, 9, 1, 34, 32) 5152        max_pooling3d_9[0][0]
__________________________________________________________________________________________________
conv3d_12 (Conv3D)              (None, 9, 1, 34, 32) 5152        max_pooling3d_10[0][0]
__________________________________________________________________________________________________
conv1d_6 (Conv1D)               (None, 37, 32)       1568        max_pooling1d_5[0][0]
__________________________________________________________________________________________________
leaky_re_lu_17 (LeakyReLU)      (None, 9, 1, 34, 32) 0           conv3d_11[0][0]
__________________________________________________________________________________________________
leaky_re_lu_18 (LeakyReLU)      (None, 9, 1, 34, 32) 0           conv3d_12[0][0]
__________________________________________________________________________________________________
leaky_re_lu_14 (LeakyReLU)      (None, 37, 32)       0           conv1d_6[0][0]
__________________________________________________________________________________________________
max_pooling3d_11 (MaxPooling3D) (None, 9, 1, 6, 32)  0           leaky_re_lu_17[0][0]
__________________________________________________________________________________________________
max_pooling3d_12 (MaxPooling3D) (None, 9, 1, 6, 32)  0           leaky_re_lu_18[0][0]
__________________________________________________________________________________________________
max_pooling1d_6 (MaxPooling1D)  (None, 18, 32)       0           leaky_re_lu_14[0][0]
__________________________________________________________________________________________________
concatenate_5 (Concatenate)     (None, 9, 1, 6, 64)  0           max_pooling3d_11[0][0]
                                                                 max_pooling3d_12[0][0]
__________________________________________________________________________________________________
flatten_6 (Flatten)             (None, 576)          0           max_pooling1d_6[0][0]
__________________________________________________________________________________________________
flatten_5 (Flatten)             (None, 3456)         0           concatenate_5[0][0]
__________________________________________________________________________________________________
x3 (InputLayer)                 (None, 7)            0
__________________________________________________________________________________________________
concatenate_6 (Concatenate)     (None, 4039)         0           flatten_6[0][0]
                                                                 flatten_5[0][0]
                                                                 x3[0][0]
__________________________________________________________________________________________________
dense_5 (Dense)                 (None, 15)           60600       concatenate_6[0][0]
__________________________________________________________________________________________________
dense_6 (Dense)                 (None, 1)            16          dense_5[0][0]
==================================================================================================
Total params: 73,704
Trainable params: 73,704
Non-trainable params: 0
__________________________________________________________________________________________________
loading data from ticker 000910, yyyymmdd 20180424 is finished.
loading data from ticker 002150, yyyymmdd 20180502 is finished.
…
