
__________________________________________________________________________________________________
Layer (type)                    Output Shape         Param #     Connected to
==================================================================================================
x1 (InputLayer)                 (None, 10, 2, 120, 2 0
__________________________________________________________________________________________________
x2 (InputLayer)                 (None, 120, 11)      0
__________________________________________________________________________________________________
conv3d_5 (Conv3D)               (None, 9, 2, 116, 16 336         x1[0][0]
__________________________________________________________________________________________________
conv3d_6 (Conv3D)               (None, 10, 1, 116, 1 336         x1[0][0]
__________________________________________________________________________________________________
conv1d_3 (Conv1D)               (None, 118, 16)      544         x2[0][0]
__________________________________________________________________________________________________
leaky_re_lu_9 (LeakyReLU)       (None, 9, 2, 116, 16 0           conv3d_5[0][0]
__________________________________________________________________________________________________
leaky_re_lu_10 (LeakyReLU)      (None, 10, 1, 116, 1 0           conv3d_6[0][0]
__________________________________________________________________________________________________
leaky_re_lu_7 (LeakyReLU)       (None, 118, 16)      0           conv1d_3[0][0]
__________________________________________________________________________________________________
max_pooling3d_5 (MaxPooling3D)  (None, 9, 2, 38, 16) 0           leaky_re_lu_9[0][0]
__________________________________________________________________________________________________
max_pooling3d_6 (MaxPooling3D)  (None, 10, 1, 38, 16 0           leaky_re_lu_10[0][0]
__________________________________________________________________________________________________
max_pooling1d_3 (MaxPooling1D)  (None, 39, 16)       0           leaky_re_lu_7[0][0]
__________________________________________________________________________________________________
conv3d_7 (Conv3D)               (None, 9, 1, 34, 32) 5152        max_pooling3d_5[0][0]
__________________________________________________________________________________________________
conv3d_8 (Conv3D)               (None, 9, 1, 34, 32) 5152        max_pooling3d_6[0][0]
__________________________________________________________________________________________________
conv1d_4 (Conv1D)               (None, 37, 32)       1568        max_pooling1d_3[0][0]
__________________________________________________________________________________________________
leaky_re_lu_11 (LeakyReLU)      (None, 9, 1, 34, 32) 0           conv3d_7[0][0]
__________________________________________________________________________________________________
leaky_re_lu_12 (LeakyReLU)      (None, 9, 1, 34, 32) 0           conv3d_8[0][0]
__________________________________________________________________________________________________
leaky_re_lu_8 (LeakyReLU)       (None, 37, 32)       0           conv1d_4[0][0]
__________________________________________________________________________________________________
max_pooling3d_7 (MaxPooling3D)  (None, 9, 1, 6, 32)  0           leaky_re_lu_11[0][0]
__________________________________________________________________________________________________
max_pooling3d_8 (MaxPooling3D)  (None, 9, 1, 6, 32)  0           leaky_re_lu_12[0][0]
__________________________________________________________________________________________________
max_pooling1d_4 (MaxPooling1D)  (None, 18, 32)       0           leaky_re_lu_8[0][0]
__________________________________________________________________________________________________
concatenate_3 (Concatenate)     (None, 9, 1, 6, 64)  0           max_pooling3d_7[0][0]
                                                                 max_pooling3d_8[0][0]
__________________________________________________________________________________________________
flatten_4 (Flatten)             (None, 576)          0           max_pooling1d_4[0][0]
__________________________________________________________________________________________________
flatten_3 (Flatten)             (None, 3456)         0           concatenate_3[0][0]
__________________________________________________________________________________________________
x3 (InputLayer)                 (None, 7)            0
__________________________________________________________________________________________________
concatenate_4 (Concatenate)     (None, 4039)         0           flatten_4[0][0]
                                                                 flatten_3[0][0]
                                                                 x3[0][0]
__________________________________________________________________________________________________
dense_3 (Dense)                 (None, 15)           60600       concatenate_4[0][0]
__________________________________________________________________________________________________
dense_4 (Dense)                 (None, 1)            16          dense_3[0][0]
==================================================================================================
Total params: 73,704
Trainable params: 73,704
Non-trainable params: 0
__________________________________________________________________________________________________
loading data from ticker 000910, yyyymmdd 20180424 is finished.
loading data from ticker 002150, yyyymmdd 20180502 is finished.
…
