…
/Users/onmylife/.virtualenvs/trading/lib/python3.6/site-packages/h5py/__init__.py:36: FutureWarning: Conversion of the second argument of issubdtype from `float` to `np.floating` is deprecated. In future, it will be treated as `np.float64 == np.dtype(float).type`.
  from ._conv import register_converters as _register_converters
Using TensorFlow backend.
__________________________________________________________________________________________________
Layer (type)                    Output Shape         Param #     Connected to
==================================================================================================
x1 (InputLayer)                 (None, 10, 2, 120, 2 0
__________________________________________________________________________________________________
x2 (InputLayer)                 (None, 120, 11)      0
__________________________________________________________________________________________________
conv3d_1 (Conv3D)               (None, 9, 2, 116, 16 336         x1[0][0]
__________________________________________________________________________________________________
conv3d_2 (Conv3D)               (None, 10, 1, 116, 1 336         x1[0][0]
__________________________________________________________________________________________________
conv1d_1 (Conv1D)               (None, 118, 16)      544         x2[0][0]
__________________________________________________________________________________________________
leaky_re_lu_3 (LeakyReLU)       (None, 9, 2, 116, 16 0           conv3d_1[0][0]
__________________________________________________________________________________________________
leaky_re_lu_4 (LeakyReLU)       (None, 10, 1, 116, 1 0           conv3d_2[0][0]
__________________________________________________________________________________________________
leaky_re_lu_1 (LeakyReLU)       (None, 118, 16)      0           conv1d_1[0][0]
__________________________________________________________________________________________________
max_pooling3d_1 (MaxPooling3D)  (None, 9, 2, 38, 16) 0           leaky_re_lu_3[0][0]
__________________________________________________________________________________________________
max_pooling3d_2 (MaxPooling3D)  (None, 10, 1, 38, 16 0           leaky_re_lu_4[0][0]
__________________________________________________________________________________________________
max_pooling1d_1 (MaxPooling1D)  (None, 39, 16)       0           leaky_re_lu_1[0][0]
__________________________________________________________________________________________________
conv3d_3 (Conv3D)               (None, 9, 1, 34, 32) 5152        max_pooling3d_1[0][0]
__________________________________________________________________________________________________
conv3d_4 (Conv3D)               (None, 9, 1, 34, 32) 5152        max_pooling3d_2[0][0]
__________________________________________________________________________________________________
conv1d_2 (Conv1D)               (None, 37, 32)       1568        max_pooling1d_1[0][0]
__________________________________________________________________________________________________
leaky_re_lu_5 (LeakyReLU)       (None, 9, 1, 34, 32) 0           conv3d_3[0][0]
__________________________________________________________________________________________________
leaky_re_lu_6 (LeakyReLU)       (None, 9, 1, 34, 32) 0           conv3d_4[0][0]
__________________________________________________________________________________________________
leaky_re_lu_2 (LeakyReLU)       (None, 37, 32)       0           conv1d_2[0][0]
__________________________________________________________________________________________________
max_pooling3d_3 (MaxPooling3D)  (None, 9, 1, 6, 32)  0           leaky_re_lu_5[0][0]
__________________________________________________________________________________________________
max_pooling3d_4 (MaxPooling3D)  (None, 9, 1, 6, 32)  0           leaky_re_lu_6[0][0]
__________________________________________________________________________________________________
max_pooling1d_2 (MaxPooling1D)  (None, 18, 32)       0           leaky_re_lu_2[0][0]
__________________________________________________________________________________________________
concatenate_1 (Concatenate)     (None, 9, 1, 6, 64)  0           max_pooling3d_3[0][0]
                                                                 max_pooling3d_4[0][0]
__________________________________________________________________________________________________
flatten_2 (Flatten)             (None, 576)          0           max_pooling1d_2[0][0]
__________________________________________________________________________________________________
flatten_1 (Flatten)             (None, 3456)         0           concatenate_1[0][0]
__________________________________________________________________________________________________
x3 (InputLayer)                 (None, 7)            0
__________________________________________________________________________________________________
concatenate_2 (Concatenate)     (None, 4039)         0           flatten_2[0][0]
                                                                 flatten_1[0][0]
                                                                 x3[0][0]
__________________________________________________________________________________________________
dense_1 (Dense)                 (None, 20)           80800       concatenate_2[0][0]
__________________________________________________________________________________________________
dense_2 (Dense)                 (None, 1)            21          dense_1[0][0]
==================================================================================================
Total params: 93,909
Trainable params: 93,909
Non-trainable params: 0
__________________________________________________________________________________________________
loading data from ticker 000910, yyyymmdd 20180424 is finished.
loading data from ticker 002150, yyyymmdd 20180502 is finished.
…
